checkpoint_actor.pth (torch_old, 489741 bytes, 5 tensors)

fc1.weight f4 [400, 3]
00000000: 0748 13bd c1ea 733d 267e 8dbd b099 04bd
00000010: e82d cb3c 9987 0cbd 3281 bebc e864 30bd
00000020: 3766 c2bb f3db 6cbd 5ee8 4cbc 891b 32bd
00000030: c361 3f3c 42d8 2d3d cb7f 90bd e62a b13c
00000040: fb2e 2fbd 0040 feb8 3382 5cbb 3ff9 8e3d
00000050: a1f2 8cbd 1db3 ce3a 9fb8 18bd 49d2 82bc
00000060: 8df1 91bb e7af babb 59f2 97bc ac23 63bc
00000070: 91a4 4fbd 0893 123c 75ca 26bd c09d d93a
00000080: 8018 053a a8c5 e93c 422c 76bd 69df 413d
00000090: a021 9a3c a41e 173d b86b 613d b4f3 10bc
000000a0: 1218 bf3c b0bc d5bb a75a 1b3d a2f4 923c
000000b0: 02ec e23c 4ca8 cd3b 8a3d 7dbd 55ff b93c
000000c0: 30ae 7f3b d248 d93c f08f 23bd a8c0 dbbb
000000d0: 0cf0 5f3c c0a7 e93a 5004 69bc 7ffe 19bd
000000e0: 68ec c43b 3644 4abd 922e 4c3d 4d2c 9dbd
000000f0: 5045 a6bb 57b3 063d 9542 443d 9a4e 29bd
00000100: a2aa a73c 3cf5 7d3c 4057 913c 9131 43bc
00000110: 6d96 c6bc 8023 223b 6683 cf3c 38f0 28bc
00000120: ecc0 b8bc d5ed 0dbd be69 b7bc fe58 11bd
00000130: ee2a 5bbd 1330 60bd 5468 5abd fbe9 82bd
00000140: 2032 873d b03d 2abb 00f8 72bb 80ce 3bbb
00000150: d218 db3c 4a5e c6bc 81f4 333d e258 dc3c
00000160: c941 0e3d ed8b 29bd 1843 c83b 5bc3 153d
00000170: a07c 203c 0e54 6cbc 574f 4dbc a2fe b6bc
00000180: 6560 2f3d d0b2 0abb 9417 8dbc 05d6 2cbc
00000190: b62d 033d 299e 1e3d 67fe e8bc 1d37 dfbc
000001a0: f597 473d 77c9 a23c d2c6 e4ba 6056 513d
000001b0: a591 eb3c 9a08 803d a454 73bd 6254 babc
000001c0: 35bf 4cbd 7b7c eebc fc83 84bc 2302 a8bc
000001d0: f6a4 81bc 05d4 7dbd 3e44 0ebd 79b4 e2bc
000001e0: 3730 213d 9cdb c8bc a1d8 263d 17b3 40bd
000001f0: 2973 453d 5019 ce3b 8b97 803c 279d 84bd
00000200: a14e 1b3d 248e ae3c 805c 1dbd e8c0 283d
00000210: 9af1 8d3c 9b35 8c3c e096 153d e6d0 d43c
00000220: 6d21 1e3d d0b8 b1bc 500e 21bd 6ccf f9bb
00000230: c63f 19bc 89d6 65bd caef 27bd ec82 343d
00000240: ddf4 85bd c869 643d 4993 823d 4da5 50bd
00000250: a86c 8d3c aa47 9cbc 59b9 833b 3ba1 b73b
00000260: a766 1a3d 1c58 76bb 0569 843d e70a 8fbd
00000270: fd0f 0dbd e442 0bbd 5d0a fdbc 991b 86bd
00000280: 6663 d43c 958e 21bd 5653 03bd 0308 013c
00000290: 0e31 1b3d 6eb2 a63c b40e 0a3c 88c3 69bc
000002a0: 0a7c c43c 470f 283d 136a 863d 2e16 9f3c
000002b0: 41da 1f3d 697a 7cbc d1ba f6bc ab6b 68bd
000002c0: 6cd1 80bd 9afd c03c 2db0 23bd 45cc 8e3d
000002d0: dae8 15bd d020 abbb 2978 063d e131 403d
000002e0: 96cb 0abd 81c9 3c3d ad54 07bd 4bf7 6f3d
000002f0: 0903 3f3d 4bb2 3ebd 237c 38bd 1840 1e3c
00000300: d5d5 103d 8958 323d e477 523c a626 f3bc
00000310: 1d46 19bd 6066 f13c d763 423d 4232 cf3c
00000320: 702a afbb ea3f 26bd 1c91 2abd 48f8 013d
00000330: 7f67 233d e456 81bc 38b6 56bc 61fa 103d
00000340: c8a1 25bc 7279 8d3c 221a c53c 0730 e6bc
00000350: 88be 103c 3471 6ebd 4763 803d 0a98 88bd
00000360: 3e88 68bc 89ef a138 41c3 67bb b877 583c
00000370: 09fe cabc 81a8 c5bc 7798 e2ba b369 8ebc
00000380: f5ec ff3c a46f 5f3c a77e cbbc 680b 5cbc
00000390: 4abb b73c 79da 443d 8e03 ed3c 50c9 59bb
000003a0: 70fb 953b 344f 65bc c766 6ebc 6fc4 7fbd
000003b0: 9e4e 04bd f251 713c 9a8f 60bd d6f3 89bd
000003c0: a549 afbb d4e3 883c c625 d8bc ba36 d1bc
000003d0: 760c 0e3d 4c43 adbc 93e3 72bd 3bd5 b23c
000003e0: 6f32 8a3d 8217 f8bb 2f75 09bd da3f 99bd
000003f0: 5edd c93c 57c2 53bb 7a8d 88bc 825a 813c
-0.035957363 0.05955005 -0.069088265 -0.03237313 0.024802163 -0.034309004 -0.023254965 -0.04306498
-0.005932595 -0.057826947 -0.0125065725 -0.04348329 0.011681023 0.042442568 -0.070556246 0.0216269
-0.042769413 -0.00012123585 -0.003364694 0.06981134 -0.06882215 0.0015769933 -0.037285443 -0.015969412
-0.004453844 -0.0056972387 -0.018548178 -0.013863485 -0.050694052 0.008946188 -0.04072042 0.0016602799
0.0005077198 0.028536633 -0.0601008 0.0473322 0.018814862 0.036894456 0.05503437 -0.008847166
0.023326907 -0.0065227374 0.03792825 0.017938916 0.027700428 0.006276166 -0.061826266 0.02270476
0.0039013736 0.026523981 -0.03993219 -0.006706316 0.0136680715 0.0017826483 -0.01422222 -0.037596222
0.006009627 -0.049381457 0.0498491 -0.07674465 -0.0050741807 0.032885876 0.04791506 -0.041334726
0.020467106 0.015500363 0.0177418 -0.011913673 -0.02424165 0.0024740398 0.02533121 -0.010311179
-0.02255293 -0.034650642 -0.022389289 -0.03548526 -0.053507738 -0.054733347 -0.05332215 -0.063922845
0.066013575 -0.002597671 -0.003707409 -0.002865702 0.026745234 -0.024214882 0.04393435 0.026897851
0.034730706 -0.04139321 0.006111514 0.03656326 0.009795338 -0.014424337 -0.012531123 -0.022338215
0.04281654 -0.002116371 -0.017223157 -0.010549073 0.032026015 0.038725052 -0.028441621 -0.02724796
0.048728902 0.019871457 -0.0017454273 0.051107764 0.028755972 0.062516406 -0.05940689 -0.022745315
-0.049987037 -0.029112091 -0.016176216 -0.020508831 -0.01582573 -0.061969776 -0.03473305 -0.027673947
0.039352622 -0.02451878 0.040733937 -0.047045793 0.04820553 0.0062896386 0.015697261 -0.06475287
0.037916783 0.021308012 -0.038418293 0.041199595 0.017327119 0.017115405 0.03652084 0.025978517
0.038606096 -0.02169457 -0.03932029 -0.0076236036 -0.009353584 -0.0561128 -0.041000165 0.04407017
-0.065408446 0.055764943 0.06375749 -0.050938893 0.017263725 -0.01907714 0.004019898 0.005603937
0.037695553 -0.0037589138 0.064653434 -0.06984501 -0.034439076 -0.03399934 -0.03088873 -0.065482326
0.025926303 -0.039442617 -0.032061897 0.007875445 0.03788858 0.020348754 0.008426357 -0.01426781
0.023984928 0.041030195 0.06563201 0.019419756 0.039026503 -0.015410044 -0.030118378 -0.056743305
-0.06289944 0.023558427 -0.039962936 0.06972555 -0.036599018 -0.0052224174 0.032829437 0.04692257
-0.03388556 0.046090607 -0.033039737 0.058585446 0.046633754 -0.046556752 -0.04504026 0.009658836
0.035360176 0.043541465 0.012845967 -0.029681515 -0.03742038 0.029467762 0.047458496 0.02529252
-0.005345635 -0.040588297 -0.041642293 0.03173092 0.039893623 -0.015788503 -0.013104968 0.03539503
-0.010109372 0.017269824 0.024060313 -0.028099073 0.008834489 -0.058213428 0.06268936 -0.06669624
-0.014192639 7.721695e-05 -0.0035364183 0.013212137 -0.024779337 -0.0241282 -0.001728787 -0.017384386
0.03124092 0.013637457 -0.024840666 -0.013430454 0.022428174 0.048059914 0.02893236 -0.0033231564
0.004577093 -0.013995934 -0.014550871 -0.062443193 -0.032301538 0.01472901 -0.05482445 -0.06735961
-0.0053493553 0.0167102 -0.0263852 -0.025538791 0.034679852 -0.021150254 -0.059299063 0.021830192
0.06747901 -0.0075711617 -0.03355902 -0.07482882 0.024641689 -0.003231188 -0.016669024 0.015790228

fc1.bias f4 [400]
00000000: 5bdb 17be 5b5d 183f d5cc 9a3d c071 083f
00000010: cd59 a83d eaad e8be 30d6 8e3d 5651 c33e
00000020: 5aa5 a33e b76a d73e b070 b1bd 1136 0f3e
00000030: 6af6 d63c b66f 5dbe b0db 3ebe 86fc 153f
00000040: 2a8c 9dbe 90b6 a4bd 7c2a 0b3f 1ec6 92be
00000050: 38fa ffbe 70d1 00bf cd5e 0c3f 24d7 84be
00000060: 80ca db3e e682 dcbd b978 ee3d f049 8abd
00000070: d12d 02bf aaf3 f8be 6d35 dbbe ae23 703e
00000080: 3e6a eebe ab5e fd3e a55b c9be 5798 723e
00000090: cf1e ab3c b2a7 f13e f47e babe b4a7 a23e
000000a0: 1737 293e f292 98be ee99 003e f7fe a03e
000000b0: 1558 fa3d 2eb5 d3be 744c 073f 9738 f9b9
000000c0: b581 47be 38d1 0d3f aee2 7a3e e8f3 42be
000000d0: 31cd e1be 21b1 0b3f e5f8 9d3e 3898 84be
000000e0: 8efc 2a3e e604 c73e d71e de3d b466 e23d
000000f0: 8c60 e7be 3778 0dbf beec 0cbc 9d45 d3be
00000100: 8675 06bf 469d 09bc ddd4 8cbe 380f b83e
00000110: c639 f2be 0c7c 8abe 0c03 d4be b15d 423d
00000120: 9d0b a43e d4d2 bf3e d486 513e e242 0dbf
00000130: d398 a2be 2a2a 46be fed1 4e3d af17 07be
00000140: c1fa e23e fae6 ea3e c9c7 30be 5c4d 6bbe
00000150: 0094 d53e a41b b4be b0dd 63bc 1416 f5be
00000160: afee 023f 5247 613e 6d81 cabe e7b2 cf3c
00000170: 1aca ed3e e710 173e 1c35 eb3e 4827 b6be
00000180: 14d8 0b3e c4c3 98be 4730 2dbe c7de 883e
00000190: 1e6b cbbe 4a4c a6bd 9d84 a53e acbe b5be
000001a0: 6eb0 58be 6eae df3e 8e16 073f 64f4 f0be
000001b0: cd2d ed3e aabe a8be 3170 203d 85bf a4be
000001c0: f6d0 01bf 2efa 87be 59d4 cb3c c8ae 883b
000001d0: 7314 583d fd2c 483d 51e0 123f bf00 253e
000001e0: 3b2f 0ebf 27b0 d83e 56a5 93be e8f7 043f
000001f0: ce3c d9be 8e40 04bf 54fa e23e e9e6 3e3e
00000200: f3ac 0dbf b49b 2b3d f65c b93e 99f3 173e
00000210: 97ff b83e 8736 a73d f8ef e63e a04f bbbe
00000220: f0df 0f3f 344f fcbe c26f 8e3d fa31 923e
00000230: 1405 133f 12a6 c6bd af44 abbd c4c9 7cbe
00000240: ee7f 943d 82e8 04bf 3d84 843e 3806 0dbf
00000250: da79 9ebe 1b62 2ebe af8d 813d df2e ecbe
00000260: 0b8b 9a3e 741a 50be ba52 91be 2c0f 0b3f
00000270: d85a d63e 46c0 eabe 718b 6abe cebf 2ebe
00000280: a497 13be 61a5 123e de6a 07bd 85d0 143f
00000290: 6c8a 173f 9f7b 2fbd 256e 873d 502a 39be
000002a0: 556a 16bd 0919 a73e 319e 88be 9335 0d3f
000002b0: 8383 1abe aae5 4dbe 355c dabe a368 3dbe
000002c0: 13fd f83e a097 00bf 5ae3 5cbe 66d6 bfbe
000002d0: 50d7 0a3f f8e1 093f 060d 073f f10f e1bc
000002e0: 63a7 6bbe 93fa b33d 31e6 ccbc abd1 04bf
000002f0: f285 e0be 7493 eabe 11ca a23e 5aa9 023e
00000300: 1376 e63d 23b1 9bbc 01b0 883e a112 163f
00000310: 2cec bf3e ad85 c0be fce3 12bd 66b3 e0be
00000320: ae49 f5be 6e79 0c3f fb9b 0fbf 65f1 7b3e
00000330: ec34 2c3e 6276 bd3e be7f a63d 40eb adbe
00000340: ac54 f13d 1fd8 063c 9891 f6be 30ae 14bd
00000350: 4544 aebe c81e da3c 0765 083f f11a e93e
00000360: 122b 09be a0c2 c43e 2fac 963e 4eb0 9ebe
00000370: 43f4 02be 72d1 d23e 7b23 0d3e ae60 183e
00000380: 1828 b23e 37a3 b83e 7415 193f 5c0e 723e
00000390: b8a7 31be ecc0 3cbe 3bfb c73e 2694 babe
000003a0: 9cb1 9abe a7c3 cfbe f4d9 0abf 6903 77be
000003b0: 768d 0fbf b151 a03e 3a2b 063f a707 173e
000003c0: 6387 00bf 03fb 0c3f 8445 14bd 6d36 ee3d
000003d0: fa38 15be 0a46 9b3e 70e6 fbbb bec4 3abe
000003e0: a493 863d 57f2 163f 0d97 8f3e 2e9c 7d3e
000003f0: ba29 ad3e 104b b33d 7466 df3e 3983 c1be
-0.14829771 0.5951745 0.075586 0.5329857 0.08220253 -0.45445186 0.06974447 0.38147992
0.3196209 0.42073604 -0.086640716 0.13985468 0.026240546 -0.21624646 -0.18638492 0.58588445
-0.30771 -0.080426335 0.543617 -0.28666776 -0.4999559 -0.50319576 0.54832155 -0.2594539
0.42927933 -0.107671544 0.1164412 -0.06752384 -0.5085116 -0.486234 -0.42814198 0.2345111
-0.4656543 0.49486288 -0.39327732 0.23690926 0.020888714 0.47198254 -0.36424983 0.31768572
0.16524921 -0.2979961 0.1255872 0.31444523 0.122238316 -0.41349167 0.52851033 -0.00047535144
-0.19483073 0.5539737 0.24500534 -0.19038355 -0.4410186 0.5456715 0.30853954 -0.25897384
0.16697904 0.38870925 0.10845726 0.11054745 -0.45190847 -0.5526156 -0.008601366 -0.41264048
-0.52523077 -0.008399313 -0.27506152 0.3594911 -0.47309703 -0.27047765 -0.41408575 0.047452632
0.3204011 0.37465537 0.20461589 -0.5518018 -0.3175722 -0.19352022 0.050493233 -0.13192628
0.44331935 0.45879346 -0.17263712 -0.22978729 0.41714478 -0.35177338 -0.013907835 -0.47868407
0.5114545 0.21999863 -0.3955187 0.025353862 0.46443254 0.14752541 0.45938957 -0.35576844
0.13656646 -0.29836857 -0.16912948 0.26732466 -0.3973016 -0.0812002 0.32327738 -0.35497034
-0.21161053 0.43687767 0.5276879 -0.47061455 0.46324006 -0.32957965 0.039169494 -0.32177368
-0.50709474 -0.2655806 0.024881529 0.004171226 0.052753877 0.04887103 0.5737353 0.16113566
-0.5554082 0.42321894 -0.2883708 0.51940775 -0.42429203 -0.51661 0.4433161 0.18642773
-0.55342025 0.041896537 0.36203736 0.14839019 0.361325 0.08164697 0.45104957 -0.36584187
0.56201077 -0.49279177 0.0695491 0.28553754 0.57429624 -0.09699644 -0.0836271 -0.24686342
0.07250963 -0.5191728 0.2588214 -0.55087614 -0.3095234 -0.17029612 0.06325852 -0.4612951
0.30184206 -0.20322591 -0.28383428 0.54320025 0.41866183 -0.45849818 -0.22904755 -0.17065355
-0.14413315 0.143209 -0.0330609 0.58130676 0.5919559 -0.042842504 0.06612805 -0.18082547
-0.0367225 0.32636288 -0.2668319 0.5515987 -0.1508923 -0.20107141 -0.42648473 -0.18496947
0.4863058 -0.5023136 -0.21571103 -0.3746826 0.5423479 0.53860426 0.5275425 -0.027473422
-0.23013072 0.087880276 -0.025012108 -0.5188243 -0.43852192 -0.45815623 0.3179479 0.12759915
0.112529896 -0.019005364 0.2669678 0.58622175 0.37484872 -0.37601987 -0.035861954 -0.4388687
-0.47907776 0.54872787 -0.5609738 0.24603803 0.16817063 0.3700438 0.08129834 -0.33968544
0.11783728 0.008230238 -0.48157954 -0.03629893 -0.3403646 0.026626006 0.53279155 0.45528367
-0.13395336 0.38429737 0.2942824 -0.30993885 -0.12788491 0.4117542 0.13783066 0.1488063
0.34796214 0.36062023 0.5979836 0.2363829 -0.17349136 -0.18432969 0.3905886 -0.36441153
-0.3021363 -0.40578958 -0.5423882 -0.24122395 -0.5607523 0.31312326 0.5240971 0.14749013
-0.50206584 0.55070513 -0.036199108 0.11631475 -0.14572516 0.30326873 -0.0076873824 -0.18239114
0.06571129 0.5896353 0.2804493 0.24766609 0.33820897 0.087545514 0.43632853 -0.37795427

fc2.weight f4 [300, 400]
00000000: 5c78 923c fad8 1d3d 8a01 483d 3c17 aabc
00000010: cc97 3cbc bc5f e73c 6626 a2bc 380b 85bc
00000020: 12b0 25bd 8585 63bd 408d 45bc c023 6cba
00000030: 9440 843c 4eab 473d 6ef9 4e3d 0c54 273d
00000040: 807a 003d ecb4 593d 1055 e6bb bb7e f4bc
00000050: 4cd8 e3bc ce10 46bd 48e1 9bbc 1c38 f83c
00000060: 9a82 d0bc dc0b 2dbd 18eb 763c e46a 523d
00000070: 5864 5dbc 89c0 64bd 5254 46bd 707b 3c3c
00000080: f08f ad3b 00ac 083c c9fc 36bd 2022 a03a
00000090: 20ae 23bc 50d1 eb3c f204 5f3d 8489 0d3d
000000a0: ea8b 153d 5077 46bd 00fd 43bb 8694 1cbd
000000b0: f341 51bd 7480 493d f003 133d c470 abbc
000000c0: 204c df3a ec20 6bbd 40c8 59ba a4c7 36bc
000000d0: f480 d13c 2756 ffbc 164c bbbc a6c5 b1bc
000000e0: e2f9 5ebd ba2a eebc e665 023d a2e2 cabc
000000f0: d877 eabc 68f3 8a3c 7c3e 393d dbc6 3abd
00000100: f072 6cbc 8085 e2ba 0b65 4abd e2ca 67bd
00000110: ca76 4d3d 39ec 61bd 48cd 5dbd d800 47bc
00000120: 60f0 1e3c 8058 98bc 90b6 4a3c b887 e33c
00000130: cc04 66bc 1a15 1dbd 95fb 5dbd 8829 f8bc
00000140: 3b9d 37bd 2499 403d ed6b 66bd f44c 663d
00000150: b8c2 93bc 303a aa3c 9a0a 6b3d 1bce 63bd
00000160: 10ec b23b d83f 24bd 9a80 4b3d cc3a 6c3d
00000170: c00b 85bc 809e b53a 1453 b93c 667d 363d
00000180: 42fc 3a3d d7c9 41bd 3ff2 32bd 88de 033d
00000190: c669 0f3d 7006 54bc f895 573d 2086 3a3d
000001a0: 6ccb cfbc 04fa 7abc 762b 13bd 60d1 e7bb
000001b0: 56ec abbc 2084 7cbc 5490 d9bc c044 05ba
000001c0: 6efb 51bd 407d 583d a473 233d 204b 843c
000001d0: 6801 853c dec0 b7bc 806c 25bb 181e 8b3c
000001e0: 2c25 343d 26b3 ecbc 1636 1c3d d43b 54bd
000001f0: ded0 4e3d 70f1 7bbb 88c2 cfbb b464 2d3d
00000200: d3a1 6abd 5c18 58bd 31d9 57bd 700f c0bb
00000210: 5ce6 32bc a4b2 54bd 5842 293d d0fe 45bd
00000220: 6aa8 4cbd 84ed 93bc b2dc 093d 2e7f 213d
00000230: eae9 0ebd 3009 243d ee5b 30bd 6030 a4bb
00000240: e063 bb3c 54c8 da3c 6662 9fbc 80b9 c73a
00000250: 28b7 093d e8f7 8d3c 8e1b 1f3d 142f 5bbc
00000260: 8870 63bd 8035 aabb 2c34 c5bc 78ec 49bd
00000270: ec04 23bc 903b 19bd 1400 1bbd 7c73 cdbc
00000280: bdeb 39bd dc38 d43c a856 583d b239 14bd
00000290: 2ab2 3d3d be6e 4f3d 0029 1a3c 4886 1b3d
000002a0: 6861 ebbb 197f 04bd c07d 593d f805 913c
000002b0: 0ecd 573d bcdf 39bc df7a 69bd f6e5 8cbc
000002c0: 9fcd ffbc f026 033d e88d a1bb 6f95 45bd
000002d0: 00bb 9ab9 a8d5 1dbd 77df 29bd 7a0d 08bd
000002e0: 6ab5 343d e295 f3bc aa74 c0bc 60aa 163b
000002f0: 3564 51bd b044 f63b 688a c4bb 1cfd 2a3d
00000300: 2027 d23c 50b0 723c 3035 7cbc c07b e73a
00000310: 244a 9dbc 10dd a5bc d695 103d 8e14 2abd
00000320: e612 283d 073c 66bd 74d9 403d 83f4 58bd
00000330: 0079 dc39 9884 573c ac89 0c3d c481 6a3d
00000340: 743b 1dbd 696e 63bd ce77 25bd 8c2a cebc
00000350: d86f 83bb bc24 843c 807c 043d 8015 363b
00000360: 8adf 423d eef7 58bd 10d2 39bb 7445 45bd
00000370: acad b13c 1087 73bc d665 4f3d 4233 293d
00000380: 783b 2bbc 20b2 c83a 1053 34bd 909f fe3b
00000390: e0af 8dbc 4402 253d 8405 fb3c 4035 7cba
000003a0: a224 543d e266 303d 36e4 ffbc 021f 623d
000003b0: 5778 0cbd 4086 73bc 94aa 183d 008d 153d
000003c0: 1080 5f3c e864 673d 6a62 273d dcec a63c
000003d0: 8ac0 3c3d 3061 5f3b 80ed 443c f3c0 16bd
000003e0: f8d0 b73c c481 d4bc 0673 243d e8e0 65bc
000003f0: fc79 9dbc 45f0 2fbd e43a 34bc 20b0 c43b
0.017879657 0.038537003 0.048829593 -0.020763032 -0.011510801 0.028243892 -0.0197937 -0.016240701
-0.040451117 -0.055547256 -0.012057602 -0.0009008013 0.016144074 0.048747353 0.050530843 0.040851638
0.031366825 0.053151056 -0.007029183 -0.029845586 -0.0278131 -0.04835587 -0.01902832 0.030300193
-0.0254529 -0.042247638 0.015070699 0.05137147 -0.013512693 -0.05584768 -0.048420258 0.011504039
0.0052966997 0.008341789 -0.04467467 0.0012217201 -0.009990245 0.028786331 0.054448076 0.034554973
0.036510386 -0.04845363 -0.0029905438 -0.03822758 -0.051088285 0.049194768 0.035892427 -0.020927794
0.0017036237 -0.057404444 -0.00083077326 -0.0111559965 0.025574185 -0.03116901 -0.022863429 -0.021700691
-0.054437526 -0.029073108 0.03183546 -0.02476627 -0.0286216 0.016961768 0.045225605 -0.0455998
-0.0144317 -0.0017282218 -0.04941277 -0.05658997 0.050162114 -0.05515692 -0.05415085 -0.012146197
0.009700865 -0.018596888 0.012372628 0.027774677 -0.01403923 -0.038350202 -0.054195005 -0.030293241
-0.04482768 0.047021046 -0.05625527 0.056225732 -0.018037185 0.0207797 0.057383157 -0.05561648
0.0054602697 -0.04009995 0.04968319 0.05767326 -0.016240954 0.0013856441 0.022622623 0.044553183
0.045650728 -0.04731163 -0.043688055 0.032194644 0.035012983 -0.012940988 0.052633256 0.045538068
-0.025365554 -0.015318397 -0.03593012 -0.00707452 -0.020986717 -0.01541236 -0.026558079 -0.0005083792
-0.051265173 0.052853823 0.039905205 0.016149104 0.016236022 -0.022430833 -0.0025241673 0.016982123
0.043980762 -0.028894018 0.038137518 -0.05181487 0.05049216 -0.0038443469 -0.0063403286 0.042332366
-0.057283234 -0.052757606 -0.052697364 -0.0058612153 -0.01091918 -0.051928177 0.041323036 -0.04833871
-0.0499653 -0.018057592 0.033657737 0.03942793 -0.034891047 0.040047824 -0.04305642 -0.0050106496
0.022874773 0.026706852 -0.0194561 0.0015237778 0.033621937 0.017330125 0.038844638 -0.0133779235
-0.05552724 -0.005194366 -0.024072729 -0.04929778 -0.009949904 -0.03741032 -0.03784187 -0.025079481
-0.045390833 0.025906019 0.052817017 -0.036187835 0.04631249 0.05064272 0.009409189 0.037969857
-0.0071832426 -0.032347772 0.05309844 0.017703041 0.05268579 -0.011344846 -0.057001945 -0.017199498
-0.031225977 0.032019556 -0.0049302466 -0.048238214 -0.00029512495 -0.038533837 -0.04147288 -0.033215977
0.044118322 -0.029734556 -0.02349313 0.0022989735 -0.051120955 0.0075155124 -0.0059979446 0.04174529
0.025653422 0.014812544 -0.01539354 0.0017660782 -0.019200392 -0.020247012 0.035299145 -0.04152351
0.041033648 -0.05620959 0.04708238 -0.05296756 0.00042051822 0.013154171 0.03431098 0.05725266
-0.038386777 -0.055525217 -0.040397458 -0.025166772 -0.0040111355 0.016130798 0.032345295 0.002778381
0.047576465 -0.05297082 -0.0028353967 -0.04816194 0.021689259 -0.014863744 0.050634228 0.04130865
-0.01045119 0.0015311874 -0.044024527 0.007770486 -0.017295778 0.040285364 0.030642278 -0.0009620972
0.05179275 0.043066867 -0.03123675 0.055205353 -0.034294453 -0.014863551 0.03727205 0.03651142
0.013641372 0.056492716 0.04086534 0.020376615 0.046082057 0.0034085028 0.012019515 -0.036805104
0.022438511 -0.025940783 0.040148757 -0.014030673 -0.019223206 -0.04295375 -0.011000369 0.006002441

fc2.bias f4 [300]
00000000: 0cdd 72bc ff64 9f3c dbfc bf3b d8bc e73c
00000010: 688d b23b e523 c3bc dd10 703c e2af 863b
00000020: 1059 623d a616 ff3c 553f 713d 3a8a aabc
00000030: 7e93 3f3d ddce 22bc 692d 843d f6fb 8ebc
00000040: 199f 5c3d 186d 19bd ba04 e83b e530 cb3c
00000050: a080 7abc 596d 74bc c343 293d 4dda 9abc
00000060: c9a3 0c3b aed9 cc3c 80e2 05bd 82de be3c
00000070: 5d24 d4bc 1825 5f3d 16e1 08bd d335 6c3d
00000080: fd3e ebbb 2f4a c43c b214 f3bb 59da 72bc
00000090: a305 7d3d 80b0 7eba ccc9 843c caff 19bd
000000a0: 7c95 bfba 6fac 0ebd d826 d1bc 1093 5cbc
000000b0: 8452 603c 83f9 ca3c 8e30 afbb c2c3 b43c
000000c0: f7a6 a8bc ad2e f9bc 6ec6 e0bc 2fe4 8c3d
000000d0: 327e 0b3b 9eea 5c3d 6d59 20bc 06cf 23bd
000000e0: 4025 55bc 2924 5c3d f327 8739 97e7 3b3d
000000f0: a716 2d3d 2344 46bd 9f93 853d 5b21 1fbc
00000100: 9e69 483c b71f 00bd 98f6 01bc a59b 4e3d
00000110: a963 0f3d c04d 32bc 00fd 613b 302c ed3b
00000120: 19a3 133d fbc1 133d 8b21 03bd 8041 cd3c
00000130: e03a 2aba 65b9 ec3c 7af8 6fbc 4cd1 df3c
00000140: 5349 d7bc e09e 153d f9e5 133d c8cc 4cbc
00000150: cbaf d3bb ee2f 3d3c c72e 433d 018f bfbc
00000160: c06f c03a 912c 143d 875d 653d 220e dd3c
00000170: 3b69 bf3c 3181 3d3d 88cc 1ebd 3c3e 603d
00000180: e786 2abd 5261 ba3c 78f7 0abd 1a75 d73c
00000190: 29ec 103d be08 883c 3bb1 15bd 1a2a d63c
000001a0: 6ed4 433a ff1a 523d e36e e5bc cbb3 2ebd
000001b0: c877 19bd 85b7 1fbd 2fbd 02bc c72b 033c
000001c0: 164c ea3c d805 703c e572 09bd 6b61 373d
000001d0: 7fa5 99bc 4d12 273c 15c8 5e3c 88ae dbba
000001e0: 69f5 ca3c a568 19bc 1a15 afbc 4a1f 1cbd
000001f0: 2898 583d 0d77 e9bc ec09 363c 3c4a 1b3d
00000200: 5efe 943c 9c62 0a3d c4d2 283d e02c 9ebc
00000210: a0de 6a3d 4968 63bc cd49 383d 0d14 5f3d
00000220: 86c0 4dbc 46cc 383d cc33 d83c 6a64 bcbc
00000230: d43d 8fbc 03ae 9e3c 016c 49bd 9ded e83c
00000240: 2a7b 2cbd 6266 05bd 9fd8 423d f3bd cfbc
00000250: 79c6 0abc e4f8 bb3c 1f2f 373d e45d 82bc
00000260: dfc0 f3bc 6aee 253c 97f8 fdbc 80c5 3c3c
00000270: 4d1e 1dbd 9ed8 c83b 1951 a03c e56a 40bc
00000280: d602 553d 18b8 b73b 3e24 5f3d 3df6 203d
00000290: f2f7 a037 1760 803d e057 c3bc 1cf5 603c
000002a0: a686 343b 0a1c 553d 6333 84bc a0e0 d9ba
000002b0: c58e 3cbd 20a0 03bc 2070 6b3d 08a7 623d
000002c0: c083 b5bc 8537 3dbc 6407 7b3c be95 773d
000002d0: 83e0 323c 4c7c bf3c d32a 513c b24a 523d
000002e0: 1a01 403d 7337 38bb 8444 223d 40a8 053c
000002f0: 5551 49bd 76c1 703d 5097 973b ddaf 043d
00000300: 2edf 5dbc b826 29bd f780 823d 8854 443c
00000310: 87ed 2a3c 4b80 7f3d ac03 0d3d 79eb 32bd
00000320: d865 7fbc 7848 06bd 4016 4bbd 7d81 003d
00000330: f6ed 0ebd b76f ddbc 50e1 823d 63c2 2d3d
00000340: 3472 36bc 80ab 493c 6a82 bebc 934c 2e3d
00000350: 2e3a 6dbc 6e1f bc3c 9d64 803b db35 f13c
00000360: 58ee 1bbd b7af 2d3d d460 ed3c c296 8bbc
00000370: 6937 7e3d 616a 953b d483 58bc 512a 15bc
00000380: 8eef 4a3d 113e 573d f24f f13c dd99 58bc
00000390: 2448 25bd 8b7c 783c 30cd 243d 51cb b1ba
000003a0: fa1d 283c 9acf 763b 5a47 fabc 6331 ac3c
000003b0: e0d7 48bc d5a7 703d 0cd0 5c3d 81bd 9cbb
000003c0: 9722 ebbc 1722 743d d070 25bb 05eb abbc
000003d0: 2b5d 4cbd 80ec 2dbc c4e0 99bc 4c4b 563c
000003e0: 678b 1b3d 5bc9 42bd 93b2 10bd 01b1 aabb
000003f0: 4c97 debc b8a6 1cbc dd54 d3bc e37a d7bb
-0.0148232095 0.019457338 0.005859 0.02828829 0.005448986 -0.023820827 0.014652458 0.0041103223
0.055260718 0.03113873 0.05889829 -0.020817865 0.04677152 -0.009937015 0.06453974 -0.017454129
0.053862665 -0.037457556 0.0070806416 0.024803588 -0.015289456 -0.014918649 0.04132439 -0.018902922
0.0021459928 0.025006142 -0.03268671 0.02329946 -0.025896246 0.054478735 -0.033417784 0.05766852
-0.0071791396 0.023961155 -0.0074182386 -0.014822566 0.061772954 -0.00097156316 0.016209505 -0.037597455
-0.0014616693 -0.034832414 -0.025531217 -0.013462797 0.013691548 0.02477718 -0.0053463643 0.022066
-0.020587428 -0.030417765 -0.027438369 0.0687946 0.0021284935 0.053934686 -0.009786946 -0.039992355
-0.013009369 0.053745423 0.0002577897 0.04587516 0.04225793 -0.048404824 0.06522297 -0.009712542
0.012232212 -0.031280246 -0.007932328 0.050441403 0.035007153 -0.010882795 0.0034483075 0.0072379336
0.036044214 0.036073666 -0.03201441 0.025055647 -0.00064937584 0.028896997 -0.014646644 0.02732148
-0.02628008 0.036528468 0.03610799 -0.0124999955 -0.006460165 0.011547072 0.047652032 -0.02338362
0.0014681742 0.036175314 0.055997398 0.026984278 0.023365607 0.046265785 -0.038769275 0.05474685
-0.04163256 0.022751484 -0.03392741 0.026300956 0.03538147 0.016605731 -0.036545973 0.026143122
0.0007470314 0.051295277 -0.028006976 -0.042651933 -0.037467748 -0.038993377 -0.007979675 0.008006043
0.028600734 0.014649831 -0.033556838 0.04477064 -0.018755672 0.010197234 0.013597508 -0.0016760388
0.024775224 -0.009363328 -0.021372367 -0.038115777 0.052879483 -0.02849915 0.011110764 0.037912592
0.018187698 0.033785447 0.041216627 -0.019308507 0.057341218 -0.013879844 0.044992257 0.05446248
-0.012558108 0.045116685 0.026391886 -0.0229971 -0.017485537 0.019370085 -0.049175266 0.028433615
-0.042109646 -0.032568343 0.047569867 -0.02535913 -0.008470171 0.022945829 0.044722673 -0.015913911
-0.029755054 0.010127643 -0.031002326 0.011521697 -0.038358975 0.0061293384 0.01956992 -0.011744236
0.052004658 0.0056066625 0.054477923 0.03929733 1.9188945e-05 0.06268328 -0.023845613 0.013730314
0.0027546077 0.052028693 -0.016137784 -0.001662273 -0.046034593 -0.008033782 0.057479978 0.055335075
-0.02215755 -0.011548881 0.015321586 0.06044554 0.010917786 0.023374699 0.012766558 0.051340766
0.04687605 -0.0028109222 0.039616123 0.00815779 -0.04914983 0.05877825 0.004626192 0.03239428
-0.01354198 -0.04129669 0.06372254 0.011983044 0.0104326075 0.06237821 0.03442733 -0.043681595
-0.015588246 -0.032783955 -0.049581766 0.03137349 -0.034894906 -0.027030809 0.06390631 0.04242171
-0.011135627 0.012308955 -0.023255546 0.042553496 -0.014479203 0.022964206 0.003918244 0.029444626
-0.0380691 0.042403903 0.028976835 -0.01703966 0.062064562 0.0045598005 -0.013215024 -0.009104327
0.049544863 0.052549426 0.029457066 -0.013220278 -0.040352 0.015166412 0.040234745 -0.0013564621
0.010261053 0.0037660361 -0.030551601 0.021019643 -0.0122585 0.058753807 0.053909346 -0.004783333
-0.028703017 0.059602823 -0.0025244243 -0.02098609 -0.04989354 -0.010615468 -0.018783934 0.013079476
0.03797474 -0.04755531 -0.03532655 -0.005209089 -0.027171753 -0.009561233 -0.025797302 -0.0065759285

fc3.weight f4 [1, 300]
00000000: 989e ff39 5b70 7ebc a065 273a aef2 87bc
00000010: 6283 beba 2320 c939 4e77 97bc 3179 87bc
00000020: 9b4c a3bc 3ba9 99bc a7ec 91bc d407 89bc
00000030: 267b 1138 23fc 95bc 5ba2 94bc 3bcc 98ba
00000040: 6d2e 81bc 3bee 6dbc 9be1 83bc 2556 8ebc
00000050: 5856 91bc 3f5d a3bc f67f a1bc 9a77 083b
00000060: e298 88bc 7eda 0fbb 0162 91ba 6470 95bc
00000070: 1886 a9b9 639a 9ebc eb98 2bbb 13e3 94bc
00000080: 7b65 7fba e295 a3bc 8dde ebbc a295 cfbc
00000090: b78f 8dbc f448 1b3b 7ca2 8dbc 9c3d 40ba
000000a0: 09c4 9dbc 591a 96bc 039b 8cbc 8b1b 6cba
000000b0: de88 393b bc55 a6bc 962e d7bc 8d75 a23a
000000c0: 2644 01bb 6266 fcba 4307 8b3a fced e3bc
000000d0: 499e aabc 0149 94bc 1505 a2bc 24e3 05bb
000000e0: 0a58 243b d6e5 93bc 29af 8fbc 19ec 0b3a
000000f0: 39cb 82bc f677 ba3a 13b8 d6bc e158 063b
00000100: d84e 97bc c966 6ebc ee80 91bc 7904 b9bc
00000110: ea09 813a 7a86 87bc ded6 093b 8cb3 913a
00000120: 7f03 72bc 744c ea3a cf5a 90ba 71b7 8ebc
00000130: 35eb 8bbc 2eef 94bc 7949 8ebc e482 8bbc
00000140: 5b50 0039 685a 94bc a875 2f3a 7ece 97bc
00000150: d9f2 88ba 1d9a 8ebc 0da1 8bbc 3e1d fb39
00000160: d4e2 3c3b 2048 a0bc 35e2 88bc 1baf fcba
00000170: 877a 9bbc 483d 8abc 1a70 88ba 1791 89bc
00000180: e883 9438 9524 a8bc befe bfba c594 8abc
00000190: af01 1bbb d79e a1bc 86eb 40bb ac34 a1bc
000001a0: ce22 9cbc a610 d3bc afde 9fba a6cd 04b9
000001b0: e1f8 dab9 6643 a6ba 15e3 073b 6eea 7fbc
000001c0: 0a29 42bb 0832 81bc b5f5 3ebb 0ff0 3fbb
000001d0: 45d7 8dbc 2bfa 7dbc 81e1 6339 cc9f 98bc
000001e0: 65a2 88bc 465d dcbc c01d 073b d4c0 0fba
000001f0: 7cc2 e1bc 3474 293b 7775 7ebc d981 d3bc
00000200: b43f 25bb c4ef 9abc bad2 56ba 00ba f3ba
00000210: f800 a1bc 7704 8ebc be39 9ebc 119b 93bc
00000220: 91f2 9ebc 48dd 92bc 2c61 2bba 11f4 86bc
00000230: aea3 bdba a7c8 b0bc 483f d4b9 e237 90bc
00000240: d802 083a 5379 9abc e862 95bc 9dbb 3cbb
00000250: f635 93bc 2e5c 8438 a008 e4b8 1c61 233b
00000260: 4d4c 9fbc 7b7b 83bc 8431 a13a a9fd 00bb
00000270: d866 3eba 3ce0 92bc d60e 86bc be99 99bc
00000280: 616a 96bc 8c2e 93ba 59a7 83bc c85f f1ba
00000290: eafd 95bc a770 87bc a02a 8639 7d66 96bc
000002a0: c6df 92bc 7d7e 8ebc e4a6 90bc 60c6 bb3a
000002b0: 7c38 a03a 30a3 71ba b5e2 90bc 5582 9bbc
000002c0: 3463 dbbc cf3f a5bc 8703 a8ba 2c21 90bc
000002d0: dbbb 9abc d12b 3ab9 6eb7 1939 5a10 95bc
000002e0: d52c 63b9 6410 963a 1973 8abc cd09 2aba
000002f0: 725b e1b9 e65e 92bc 3c43 a7bc 956d 98bc
00000300: 9f16 96bc 163e d9ba bba3 cabc 9c4a 98bc
00000310: 04f2 9abc a682 9bbc dc73 8fbc 20ec 86ba
00000320: e109 e3ba 3806 1a3a 90f4 2cbb 35dc 8dbc
00000330: 3438 a93a bdb2 b8ba 4432 d3bc 4fcd cfba
00000340: 0346 1dbb 825d 193b a5f7 dbbc 72c0 83bc
00000350: 734b 89bc fc44 1bbb c773 8cbc 68c0 c8b9
00000360: fd8a eb3a a615 aeb8 711b 9bbc 8b18 ddbc
00000370: aa20 8fbc f554 77bc b0ba 02ba d3c2 6bbc
00000380: 58dc 80bc 9c66 86bc 6f13 8bbc 5318 aabc
00000390: e162 6eba 79c9 85bc 547a 11ba 5d48 9abc
000003a0: 06c6 9cbc 43fa 96bc 0e1e 31bb 5e57 a6bc
000003b0: 3bc5 faba 3fb5 e2bc 2815 87bc 0cbb 83bc
000003c0: e4f3 22bb 97ab 81bc 14ec 2c3a 28ab 89bc
000003d0: 3806 86b9 986d bdb9 d0c0 7dbc 4cfb 833a
000003e0: 034f 98bc 8861 94ba 482e 9639 c992 a3bc
000003f0: 199c 733a 24bb 35ba 4cf7 d63a 7a6b 94b9
0.00048755552 -0.015529717 0.0006385688 -0.01659521 -0.0014535005 0.0003836165 -0.018489506 -0.01653728
-0.01993399 -0.018757453 -0.01781304 -0.016727366 3.4685385e-05 -0.018308705 -0.018143823 -0.0011657545
-0.015769208 -0.014522131 -0.016098788 -0.017375061 -0.017741367 -0.019941924 -0.019714337 0.0020823241
-0.016674463 -0.00219503 -0.001109183 -0.018242069 -0.000323341 -0.019360727 -0.0026183676 -0.018174684
-0.00097426 -0.01996893 -0.028792644 -0.025339905 -0.017280443 0.0023694606 -0.017289393 -0.0007333399
-0.019258516 -0.01832311 -0.01716376 -0.000900679 0.002831034 -0.020304553 -0.026267331 0.0012394652
-0.0019724458 -0.0019256587 0.0010607023 -0.02782344 -0.02082743 -0.018101217 -0.019777814 -0.0020429576
0.002507689 -0.01805393 -0.017539578 0.00053376105 -0.015966045 0.0014226425 -0.02621082 0.0020499753
-0.018470213 -0.014550873 -0.017761674 -0.02258514 0.0009844874 -0.016543616 0.0021032612 0.0011116131
-0.014771341 0.0017875568 -0.0011013391 -0.017421456 -0.017079929 -0.018180456 -0.017369019 -0.017030187
0.00012236966 -0.018109515 0.00066932524 -0.01853108 -0.0010448351 -0.017407471 -0.017044568 0.00047896238
0.0028821724 -0.019565642 -0.016709426 -0.001927826 -0.018979324 -0.016874924 -0.0010409385 -0.016792817
7.0817594e-05 -0.020525256 -0.0014648063 -0.016916642 -0.0023652127 -0.019729061 -0.0029437258 -0.019678436
-0.019059565 -0.025764775 -0.0012197102 -0.00012665111 -0.0004176563 -0.0012684881 0.0020734717 -0.015619857
-0.0029626512 -0.015770927 -0.0029138152 -0.0029287373 -0.017314563 -0.015501539 0.00021732414 -0.018630885
-0.016678998 -0.026899945 0.0020617098 -0.0005483751 -0.027558558 0.0025856616 -0.0155309355 -0.025818752
-0.0025214972 -0.018913157 -0.0008194853 -0.0018594861 -0.019653782 -0.017336113 -0.019314643 -0.018018277
-0.019402774 -0.01792778 -0.0006537612 -0.016473802 -0.0014468336 -0.021580053 -0.0004048294 -0.017604772
0.0005188412 -0.01885668 -0.018235639 -0.002879835 -0.017970067 6.31142e-05 -0.00010873494 0.0024929708
-0.019445563 -0.016050091 0.0012298082 -0.0019682443 -0.000726325 -0.017929189 -0.016364496 -0.018750068
-0.018361272 -0.0011229082 -0.016071009 -0.0018415386 -0.018309552 -0.016533209 0.0002559023 -0.018359417
-0.01792897 -0.017394299 -0.017657705 0.0014326088 0.0012223865 -0.0009217737 -0.017686227 -0.018983046
-0.026780702 -0.020172028 -0.0012818434 -0.017593943 -0.018888405 -0.00017754665 0.0001465955 -0.018196274
-0.00021665108 0.0011448977 -0.016900586 -0.0006486446 -0.00042983476 -0.017867517 -0.020417802 -0.01860694
-0.018321333 -0.0016574289 -0.024736276 -0.018590264 -0.01891423 -0.018983196 -0.0175113 -0.0010293759
-0.001732167 0.00058755605 -0.0026390888 -0.017316917 0.0012910427 -0.0014091354 -0.025780804 -0.0015854033
-0.002399803 0.0023401682 -0.026851485 -0.016082976 -0.01675961 -0.002369224 -0.01714505 -0.00038290326
0.0017970499 -8.300999e-05 -0.018933984 -0.026989242 -0.01747163 -0.015095939 -0.0004986925 -0.014389711
-0.015730068 -0.01640635 -0.01697704 -0.020763552 -0.00090937136 -0.016331421 -0.00055495393 -0.018833334
-0.019137394 -0.018429881 -0.002702597 -0.020305332 -0.0019132266 -0.027674315 -0.01648958 -0.016080402
-0.0024864608 -0.01582889 0.00065964577 -0.016805246 -0.00025563105 -0.00036130543 -0.015487865 0.0010069399
-0.018592363 -0.001132057 0.00028644712 -0.019967454 0.0009292975 -0.0006932488 0.0016400605 -0.00028308836
