checkpoint_critic.pth (torch_old, 490944 bytes, 5 tensors)

fcs1.weight f4 [400, 3]
-0.24083906 0.03669705 0.02320302 -0.10362145 0.01746874 -0.036148075 -0.019268269 -0.029206477
0.061729293 0.005102973 0.033855498 -0.04616195 -0.10766924 0.05757459 0.084795095 -0.04420924
-0.046505243 0.011546064 -0.11649291 0.027743518 -0.09032224 -0.06124767 -0.016212126 -0.025574202
-0.04887713 0.017315716 -0.06334721 -0.08566789 0.018392257 -0.040243372 -0.15670665 -0.0062837605
-0.094842635 -0.11416442 -0.009006975 0.09703804 -0.21371545 -0.0034540305 -0.0046188976 0.03618748
0.015272427 -0.0021772794 -0.1775973 -0.009459747 -0.04507621 -0.065682605 0.069570914 0.02046172
0.010120012 -0.010834448 -0.031506717 -0.021921534 0.010201938 -0.0064378865 -0.033644054 -0.010315017
-0.025826795 -0.0014214925 -0.008267444 -0.008438081 0.0344651 -0.029624779 -0.019784361 0.034577306
0.015000474 0.021875892 -0.023133066 -0.00025015895 -0.04231223 0.0065713935 0.031338725 -0.029029047
0.0087281335 -0.012233876 -0.04602141 -0.19388238 -0.0077658715 -0.086553685 -0.05420624 -0.007885228
0.08991864 -0.21667404 0.031774573 0.07095085 0.018389102 0.02300005 -0.049140245 -0.031056035
-0.03931442 -0.034317307 -0.01930523 0.026697222 0.035296295 -0.08041707 -0.006466775 -0.020531043
0.033272076 -0.026194816 -0.04298689 -0.12241403 -0.012840551 0.030540992 0.040351022 -0.03426482
0.004021276 -0.06352097 0.06012215 -0.02094493 -0.15015644 -0.033912953 -0.08186534 -0.10998256
0.048890248 0.004848 0.002864562 -0.049107917 -0.047125395 -0.112753995 -0.010794228 -0.0040224814
-0.15670283 0.020778244 -0.02260455 -0.040628653 0.03890184 0.022878055 -0.11908133 0.020951802
0.0070652026 -0.0851799 0.0012828611 0.01643082 -0.043891232 -0.010232003 0.08914129 -0.042619843
-0.043431878 0.02077775 -0.09997121 0.038560096 -0.023733692 -0.15498796 0.03957948 0.049287282
-0.086336024 -0.020903205 -0.04053509 -0.028705964 -0.008610495 0.025566356 -0.060326815 0.056258805
0.12766793 0.026010413 -0.0075901262 -0.027397407 -0.03741319 0.023740005 0.016609173 -0.09013901
-0.016756665 -0.037535828 -0.056298025 0.04528971 -0.044170815 0.056852687 0.008403712 -0.033258475
-0.16088739 0.06370796 -0.005436573 -0.132054 -0.008552851 0.03938055 -0.06874172 0.034411285
-0.10309856 -0.06859169 -0.010701428 -0.08355465 0.014708642 0.034379836 0.009843916 0.008296788
0.02948976 -0.033331133 -0.13048063 0.017043477 0.088918865 0.0069031715 -0.038764685 -0.020030607
-0.015740253 -0.043558028 -0.040813856 -0.1760378 0.031066263 0.0795983 -0.007688236 0.005611262
0.031239292 -0.12270059 0.08198831 -0.004382894 0.032893483 0.03715865 -0.0342917 0.023023795
-0.0052756295 -0.037917983 0.0008998737 -0.044816144 -0.0040912107 -0.12335707 0.04256808 -0.089567125
-0.1266363 -0.002336566 -0.04897261 -0.023507742 0.08054475 -0.021757565 -0.033415385 0.02007851
-0.11672126 0.04793256 0.022759255 -0.039121337 -0.040432196 -0.038507987 -0.008083351 0.038139466
0.008459706 0.021327268 -0.183464 0.017743124 0.09017089 0.01275548 0.03619564 -0.006409634
-0.13912758 0.011075372 -0.01602779 0.011157794 0.03338683 -0.058028515 0.048110697 -0.032464303
-0.02676992 -0.0072816126 -0.049164154 -0.031306077 -0.085321665 0.078591175 0.03572708 0.0427129
00000000: 849e 76be a54f 163d 4314 be3c 7c37 d4bd
00000010: 9a1a 8f3c 0110 14bd 7dd8 9dbc 6c42 efbc
00000020: dbd7 7c3d d736 a73b 10ac 0a3d 5014 3dbd
00000030: b181 dcbd 55d3 6b3d 0da9 ad3d bf14 35bd
00000040: 487c 3ebd b42b 3d3c d693 eebd 6046 e33c
00000050: defa b8bd d6de 7abd 4bcf 84bc fd80 d1bc
00000060: 6333 48bd b0d9 8d3c 2fbc 81bd a672 afbd
00000070: 5cab 963c 3cd6 24bd b577 20be 01e8 cdbb
00000080: db3c c2bd 09cf e9bd fe91 13bc e1bb c63d
00000090: 39d8 5abe 045d 62bb 1f5a 97bb 5339 143d
000000a0: 3439 7a3c b0b0 0ebb 11dc 35be 0efd 1abc
000000b0: d5a1 38bd 9a84 86bd 327b 8e3d 569f a73c
000000c0: 68ce 253c f882 31bc 300d 01bd ca94 b3bc
000000d0: 0826 273c e8f4 d2bb 59ce 09bd 5100 29bc
000000e0: b792 d3bc 6051 baba 2c74 07bc e03f 0abc
000000f0: 472b 0d3d aaaf f2bc d012 a2bc efa0 0d3d
00000100: 8cc4 753c 1235 b33c 8e81 bdbc c427 83b9
00000110: 974f 2dbd d854 d73b 095d 003d 53ce edbc
00000120: 7200 0f3c 9870 48bc f280 3cbd 1a89 46be
00000130: da78 febb 0f43 b1bd 5d07 5ebd 0b31 01bc
00000140: 4427 b83d cddf 5dbe 0e26 023d ae4e 913d
00000150: bea4 963c 9a6a bc3c 4847 49bd 3a69 febc
00000160: 2808 21bd 4e90 0cbd 0026 9ebc 22b4 da3c
00000170: d992 103d b4b1 a4bd 3ee7 d3bb b830 a8bc
00000180: 4d48 083d 8396 d6bc 0513 30bd 35b4 fabd
00000190: 2d61 52bc 1a31 fa3c 1d47 253d 4559 0cbd
000001a0: e8c4 833b 4817 82bd a542 763d b494 abbc
000001b0: 9cc2 19be 4fe8 0abd 04a9 a7bd 893e e1bd
000001c0: 2441 483d f9db 9e3b 60bb 3b3b 6225 49bd
000001d0: 8f06 41bd 91eb e6bd 46da 30bc 05cf 83bb
000001e0: b576 20be 2337 aa3c 2d2d b9bc 3b6a 26bd
000001f0: 8957 1f3d c26a bb3c eae0 f3bd 1da3 ab3c
00000200: 3783 e73b cd72 aebd ad25 a83a ed99 863c
00000210: 4bc7 33bd 22a4 27bc b58f b63d 2592 2ebd
00000220: a0e5 31bd 1a36 aa3c b5bd ccbd 31f1 1d3d
00000230: 296d c2bc 2ab5 1ebe 181e 223d 76e1 493d
00000240: f1d0 b0bd 333d abbc 1f08 26bd c528 ebbc
00000250: 0913 0dbc 8970 d13c 4019 77bd a26f 663d
00000260: 62bb 023e ca13 d53c 98b6 f8bb 8770 e0bc
00000270: 933e 19bd 667a c23c f60f 883c cd9a b8bd
00000280: 4645 89bc 2bbf 19bd c298 66bd b481 393d
00000290: 75ec 34bd 5dde 683d b9af 093c 0a3a 08bd
000002a0: aabf 24be 5279 823d 4825 b2bb 2a39 07be
000002b0: 4221 0cbc 804d 213d 75c8 8cbd d9f2 0c3d
000002c0: 5625 d3bd cd79 8cbd 0b55 2fbc b31e abbd
000002d0: 84fc 703c dfd1 0c3d 6048 213c 40ef 073c
000002e0: 8294 f13c 3a86 08bd b79c 05be c39e 8b3c
000002f0: 181b b63d 0034 e23b b8c7 1ebd 3a17 a4bc
00000300: b4f1 80bc e769 32bd 6e2c 27bd 4143 34be
00000310: ad7e fe3c 6f04 a33d 99ed fbbb adde b73b
00000320: 8be9 ff3c 724a fbbd 7de9 a73d 619e 8fbb
00000330: 51bb 063d ab33 183d 7475 0cbd 669c bc3c
00000340: 30df acbb e34f 1bbd 80e5 6b3a 2291 37bd
00000350: 900f 86bb a2a2 fcbd de5b 2e3d f86e b7bd
00000360: f2ac 01be 1321 19bb 8197 48bd 4f93 c0bc
00000370: a5f4 a43d ec3c b2bc 92de 08bd b07b a43c
00000380: 8e0b efbd ef54 443d 9e71 ba3c b23d 20bd
00000390: 3b9c 25bd 8dba 1dbd 0870 04bc 2138 1c3d
000003a0: 949a 0a3c 86b6 ae3c fddd 3bbe 075a 913c
000003b0: 84ab b83d 5cfc 503c e141 143d e807 d2bb
000003c0: 7677 0ebe 7a75 353c b64c 83bc 2ecf 363c
000003d0: a1c0 083d 4faf 6dbd b90f 453d 4af9 04bd
000003e0: 974c dbbc 989a eebb 5a60 49bd cd3a 00bd
000003f0: 20bd aebd 69f4 a03d 8f56 123d b9f3 2e3d

fcs1.bias f4 [400]
-0.16621095 0.5827132 0.048736162 0.518765 0.048364528 -0.45445186 0.03183263 0.3725487
0.30419928 0.40965527 -0.11109829 0.11432018 0.015868077 -0.21624646 -0.22925802 0.5702029
-0.30771 -0.080426335 0.5273701 -0.31904417 -0.4999559 -0.50319576 0.5417024 -0.2594539
0.42618468 -0.17494352 0.07735315 -0.090544246 -0.5085116 -0.486234 -0.42814198 0.2246402
-0.4656543 0.47799182 -0.39327732 0.21388143 0.00026407957 0.45421147 -0.36424983 0.3009043
0.15012157 -0.2979961 0.097965725 0.29540113 0.09372027 -0.41349167 0.51689595 -0.059340104
-0.26943067 0.5368216 0.20214859 -0.22084326 -0.4410186 0.5298557 0.29704058 -0.27381852
0.14200172 0.37343156 0.07058396 0.082185015 -0.45190847 -0.5526156 -0.04172269 -0.41264048
-0.52523077 -0.026372505 -0.31153175 0.33424264 -0.47309703 -0.27047765 -0.41408575 0.02149934
0.30318338 0.34810433 0.17422728 -0.5518018 -0.3175722 -0.19352022 0.020767672 -0.16065773
0.42683634 0.44264644 -0.20044813 -0.26173085 0.40407863 -0.35177338 -0.039993603 -0.47868407
0.4949427 0.20413165 -0.3955187 -0.0010640031 0.4385842 0.11196182 0.4435044 -0.35576844
0.09667356 -0.29836857 -0.18373103 0.22528574 -0.3973016 -0.14674363 0.3091706 -0.35497034
-0.22787595 0.42347562 0.51944333 -0.47061455 0.44569397 -0.32540312 0.0038221385 -0.32177368
-0.50709474 -0.2655806 -0.0135368835 -0.038803294 0.020027006 0.009237655 0.5612971 0.13055298
-0.5554082 0.4058009 -0.2883708 0.49719074 -0.42429203 -0.51661 0.4283817 0.16363218
-0.55342025 0.014068101 0.348952 0.112333596 0.35526735 0.0551637 0.44040957 -0.36584187
0.5511394 -0.49279177 0.039703723 0.27253804 0.56381553 -0.15123634 0.11789667 -0.26018065
0.0415382 -0.5191728 0.24279675 -0.55087614 -0.32908186 -0.19638059 0.028037218 -0.4612951
0.28880337 -0.19889432 -0.28383428 0.53148925 0.4061341 -0.45849818 -0.26033306 -0.17065355
-0.16544102 0.11112873 -0.09549074 0.5594834 0.57758766 0.027628405 0.026807763 -0.082945935
-0.08838208 0.3107257 -0.2668319 0.5360709 -0.19049092 -0.21513844 -0.42648473 -0.21749228
0.47373134 -0.5023136 -0.2362197 -0.3746826 0.52317 0.52186877 0.5151131 -0.070308894
-0.26283878 0.05947529 0.03390786 -0.5188243 -0.43852192 -0.45815623 0.29719973 0.09201083
0.08317358 -0.060452364 0.25276142 0.56719315 0.36272055 -0.37601987 -0.087869585 -0.4388687
-0.47907776 0.53474283 -0.5609738 0.22865427 0.11021314 0.3554142 0.03696652 -0.33968544
0.08830701 -0.02242586 -0.48157954 -0.1003276 -0.3403646 -0.014051025 0.51452297 0.43886194
-0.14817384 0.36803275 0.27781728 -0.32216802 -0.15573755 0.3938117 0.11681763 0.11034839
0.3340001 0.33745176 0.5795798 0.21595791 -0.2095534 -0.23013754 0.36542064 -0.36441153
-0.3021363 -0.40578958 -0.5423882 -0.27188763 -0.5607523 0.291289 0.51091385 0.12619576
-0.50206584 0.53235036 -0.06132338 0.08491663 -0.14572516 0.27056527 -0.02107247 -0.20333166
0.031357434 0.57442707 0.26352888 0.23064876 0.30226344 0.053937625 0.41885123 -0.37795427
00000000: 3433 2abe b12c 153f 929f 473d c8cd 043f
00000010: e219 463d eaad e8be ef62 023d b4be be3e
00000020: 02c0 9b3e 56be d13e 8087 e3bd b320 ea3d
00000030: c5fd 813c b66f 5dbe 9dc2 6abe d1f8 113f
00000040: 2a8c 9dbe 90b6 a4bd ba01 073f c259 a3be
00000050: 38fa ffbe 70d1 00bf 02ad 0a3f 24d7 84be
00000060: e134 da3e 6524 33be 546b 9e3d 436f b9bd
00000070: d12d 02bf aaf3 f8be 6d35 dbbe 1508 663e
00000080: 3e6a eebe 58bb f43e a55b c9be bc03 5b3e
00000090: 2974 8a39 688e e83e f47e babe 2110 9a3e
000000a0: 78b9 193e f292 98be 41a2 c83d d13e 973e
000000b0: 6af0 bf3d 2eb5 d3be 4b53 043f 9c0e 73bd
000000c0: d1f2 89be 246d 093f 0a00 4f3e bc24 62be
000000d0: 31cd e1be a0a4 073f b415 983e f131 8cbe
000000e0: e668 113e 6c32 bf3e 538e 903d 9e50 a83d
000000f0: 8c60 e7be 3778 0dbf 69e5 2abd 9d45 d3be
00000100: 8675 06bf 270b d8bc 1781 9fbe da21 ab3e
00000110: c639 f2be 0c7c 8abe 0c03 d4be 621f b03c
00000120: da3a 9b3e bb3a b23e a368 323e e242 0dbf
00000130: d398 a2be 2a2a 46be f720 aa3c 7683 24be
00000140: 4b8a da3e 8ea2 e23e 4642 4dbe 9601 86be
00000150: 65e3 ce3e a41b b4be 55d0 23bd 1416 f5be
00000160: 2169 fd3e e307 513e 6d81 cabe 0576 8bba
00000170: 1c8e e03e 3d4c e53d 0213 e33e 4827 b6be
00000180: cafc c53d c4c3 98be fd23 3cbe 4eb1 663e
00000190: 1e6b cbbe f643 16be 9c4b 9e3e acbe b5be
000001a0: 5058 69be ccd1 d83e 3dfa 043f 64f4 f0be
000001b0: 0032 e43e 3d9b a6be d87c 7a3b 85bf a4be
000001c0: f6d0 01bf 2efa 87be cec9 5dbc 34f0 1ebd
000001d0: ad0f a43c 8959 173c 2bb1 0f3f aeaf 053e
000001e0: 3b2f 0ebf 23c5 cf3e 56a5 93be c98f fe3e
000001f0: ce3c d9be 8e40 04bf d954 db3e 328f 273e
00000200: f3ac 0dbf e47d 663c d6a9 b23e 280f e63d
00000210: 9ae5 b53e 55f3 613d 5d7d e13e a04f bbbe
00000220: 7917 0d3f 344f fcbe 5fa0 223d 1b8a 8b3e
00000230: 3756 103f b3dd 1abe cf73 f13d 6636 85be
00000240: f623 2a3d 82e8 04bf b69f 783e 3806 0dbf
00000250: 6b7d a8be fe17 49be 4fae e53c df2e ecbe
00000260: 09de 933e f4aa 4bbe ba52 91be ae0f 083f
00000270: cff0 cf3e 46c0 eabe 604a 85be cebf 2ebe
00000280: 5f69 29be 7697 e33d a690 c3bd 4e3a 0f3f
00000290: c9dc 133f f754 e23c f49b db3c 8fdf a9bd
000002a0: aa01 b5bd 7017 9f3e 319e 88be f13b 093f
000002b0: 0d10 43be 404d 5cbe 355c dabe 4cb6 5ebe
000002c0: ea8c f23e a097 00bf 94e3 71be 66d6 bfbe
000002d0: 78ee 053f 3199 053f 74de 033f 1cfe 8fbd
000002e0: ce92 86be 5d9c 733d f8e2 0a3d abd1 04bf
000002f0: f285 e0be 7493 eabe 902a 983e 2d70 bc3d
00000300: e956 aa3d e69c 77bd f269 813e 9233 113f
00000310: 82b6 b93e ad85 c0be f8f4 b3bd 66b3 e0be
00000320: ae49 f5be e8e4 083f fb9b 0fbf 5824 6a3e
00000330: 6db7 e13d daf8 b53e 356a 173d 40eb adbe
00000340: 4eda b43d 70b6 b7bc 9891 f6be 8f78 cdbd
00000350: 4544 aebe 4536 66bc c7b7 033f 83b2 e03e
00000360: e2ba 17be ca6e bc3e 113e 8e3e 35f3 a4be
00000370: aa79 1fbe b0a1 c93e 153e ef3d 56fe e13d
00000380: 1002 ab3e 7ac6 ac3e 575f 143f 1224 5d3e
00000390: 2b95 56be 2da9 6bbe 6a18 bb3e 2694 babe
000003a0: 9cb1 9abe a7c3 cfbe f4d9 0abf db34 8bbe
000003b0: 768d 0fbf d523 953e 40cb 023f 7639 013e
000003c0: 6387 00bf 1d48 083f 392e 7bbd c5e8 ad3d
000003d0: fa38 15be 8887 8a3e 2ca0 acbc 2d36 50be
000003e0: a770 003d a70d 133f 42ed 863e 302f 6c3e
000003f0: 46c2 9a3e b3ed 5c3d ab73 d63e 3983 c1be

fc2.weight f4 [300, 401]
0.16699404 0.038059402 0.04462282 -0.006359941 0.06715711 0.0143506825 0.0012223459 0.0576162
0.026788527 0.054757778 0.06536387 0.06716627 0.1135898 -0.008591253 0.2582132 0.027178926
0.02708681 -0.034234047 0.034650307 -0.046062723 -0.027826535 0.032297775 -0.009571284 -0.05411881
0.012175182 0.16840935 0.011838908 0.120982654 0.020057075 0.040103637 -0.03843141 0.04326554
0.057329953 0.015915789 0.012960769 0.0768495 0.09860392 0.021881217 -0.0072578415 0.06730392
-0.01468072 0.00041732192 0.038432952 0.029280566 0.038748916 0.008684672 -0.018033566 0.096117705
0.19707945 -0.0094758365 0.08087297 -0.054933175 -0.006024435 0.03199029 0.014555556 0.067514025
0.017329615 -0.021663638 0.009660642 0.056536283 0.041564077 -0.057678465 0.08680976 -0.004484877
-0.0028549917 0.055716626 0.065633245 0.027163137 -0.055938087 0.051257625 0.04878957 0.031706125
0.045780063 -0.027327508 0.06557998 -0.0021634735 -0.022598982 0.04760681 0.111060284 -0.0038511194
0.046549078 0.051747225 0.041785777 -0.02312405 0.05702061 0.025438786 0.10642502 -0.034977484
-0.015403724 -0.022311768 0.036008395 0.025890568 -0.007039717 0.07258028 -0.016107906 0.0073767304
0.01867781 -0.027942711 0.117887735 -0.024321869 0.004816152 0.2392661 0.03155464 0.024379276
0.1016769 0.057290297 -0.027316354 -0.011513896 -0.038580347 0.22771417 0.022364754 0.035226844
-0.026229355 0.04654163 0.08792301 0.08594294 0.0829956 0.10355171 0.051174376 0.08114841
0.052430928 -0.037272096 0.038564034 0.038942244 -0.05173973 0.045429796 0.06760608 0.047752384
0.033417523 0.07589191 -0.008762275 0.06322364 0.023129849 0.0022641735 0.03440989 0.03600701
-0.025616122 -0.035584517 0.024847744 0.040791582 0.005138003 0.10366646 -0.3033769 0.15292713
0.09722157 0.019668683 -0.019673193 0.033596523 0.045366865 -0.033850685 0.027786832 0.03800407
-0.041865397 -0.047054257 0.035044774 0.022581778 -0.030011816 -0.053888775 0.03039693 0.031483144
0.007139483 0.023218606 0.058478132 0.0071012196 0.060577575 -0.1702373 -0.0037365376 -0.18746778
0.07230816 0.019882325 -0.043733716 0.018800009 0.0048247497 0.14826538 0.052618228 0.0029504597
0.05225376 0.038723595 -0.04046479 -0.027190559 -0.021569902 -0.00039797366 0.05928379 0.09316683
-0.047410443 0.035411604 -0.1815473 0.042004667 0.011342101 0.038802072 0.027290953 0.077156566
0.08741812 0.07812444 0.046424687 0.061783344 0.009042583 -0.02057993 0.12569667 -0.05705723
0.055131137 -0.0045655984 -0.038347617 0.040249765 -0.0050034686 -0.010493697 0.07527672 0.02862598
0.04269564 0.040702123 0.04769405 0.15601338 -0.05268659 0.048187897 0.03579316 -0.01672272
0.093549766 -0.012752575 -0.01797882 0.20619604 -0.01937339 0.048650946 -0.016579624 0.034873903
0.040934917 -0.0065620523 0.061256416 0.0018368576 0.16349114 -0.0034951966 -0.029426193 -0.04820851
-0.029901272 0.025121003 -0.005554989 -0.025068015 -0.0152077675 0.050569396 0.029946802 0.029604543
-0.03375221 0.029704358 0.05326664 0.028748168 0.030570067 0.059586138 0.055339985 0.059477523
0.06036149 0.045426466 0.024787195 0.05862133 -0.003494951 0.039298248 0.032934625 0.047426216
00000000: 7c00 2b3e 2de4 1b3d 6bc6 363d 0d67 d0bb
00000010: ab89 893d 201f 6b3c 1f37 a03a f7fe 6b3d
00000020: 9d73 db3c b149 603d 7edd 853d 788e 893d
00000030: c5a1 e83d 54c2 0cbc 8534 843e 57a6 de3c
00000040: 28e5 dd3c 0039 0cbd 7bed 0d3d 44ac 3cbd
00000050: 79f4 e3bc ac4a 043d e0d0 1cbc afab 5dbd
00000060: 6a7a 473c 8073 2c3e fbf7 413c c1c5 f73d
00000070: bc4e a43c b643 243d 416a 1dbd 3537 313d
00000080: d0d2 6a3d d461 823c 6859 543c 4563 9d3d
00000090: daf0 c93d 3d40 b33c 30d3 edbb a3d6 893d
000000a0: 6787 70bc 00cc da39 df6b 1d3d ccdd ef3c
000000b0: 2fb7 1e3d 284a 0e3c 21bb 93bc 5cd9 c43d
000000c0: 32cf 493e 8a40 1bbc baa0 a53d 9c01 61bd
000000d0: a068 c5bb 4008 033d 6d7a 6e3c cb44 8a3d
000000e0: d6f6 8d3c f177 b1bc ab47 1e3c 9792 673d
000000f0: 183f 2a3d 4140 6cbd 51c9 b13d e0f5 92bb
00000100: d01a 3bbb 1e37 643d b96a 863d 3a85 de3c
00000110: 561f 65bd 84f3 513d 92d7 473d 48de 013d
00000120: e083 3b3d f0dd dfbc cc4e 863d 10c9 0dbb
00000130: 8021 b9bc 5cff 423d 9373 e33d 1063 7cbb
00000140: 3faa 3e3d e6f4 533d 9027 2b3d a66e bdbc
00000150: 718e 693d 0065 d03c 5cf5 d93d 8d44 0fbd
00000160: e75f 7cbc 2bc7 b6bc 8a7d 133d 7518 d43c
00000170: 6dad e6bb f8a4 943d baf4 83bc 80b8 f13b
00000180: 3502 993c 1de8 e4bc 206f f13d a83e c7bc
00000190: d0d0 9d3b 2c02 753e 703f 013d 0cb7 c73c
000001a0: fb3b d03d 3ba9 6a3d 8cc6 dfbc c8a4 3cbc
000001b0: 6d06 1ebd e72d 693e 4a36 b73c 064a 103d
000001c0: f2de d6bc 70a2 3e3d fb10 b43d da02 b03d
000001d0: 99f9 a93d eb12 d43d 399c 513d 2331 a63d
000001e0: d0c1 563d a0aa 18bd 52f5 1d3d e781 1f3d
000001f0: 0aed 53bd 9814 3a3d 0e75 8a3d 0198 433d
00000200: d0e0 083d 386d 9b3d a58f 0fbc 657b 813d
00000210: cf7a bd3c 8762 143b 63f1 0c3d 167c 133d
00000220: e7d8 d1bc 12c1 11bd 7f8d cb3c 1315 273d
00000230: b15c a83b 154f d43d 3854 9bbe ee98 1c3e
00000240: 1a1c c73d 3820 a13c ad29 a1bc 829c 093d
00000250: 9bd2 393d 04a7 0abd 36a1 e33c 28aa 1b3d
00000260: 0d7b 2bbd f7bb 40bd 1c8b 0f3d 6cfd b83c
00000270: 57db f5bc 7aba 5cbd fc02 f93c 78f4 003d
00000280: 53f2 e93b f234 be3c c486 6f3d 59b1 e83b
00000290: 3120 783d b052 2ebe b3e0 74bb 8ef7 3fbe
000002a0: 4d16 943d 42e0 a23c 2022 33bd 7a02 9a3c
000002b0: ef18 9e3b e1d2 173e 3686 573d 805c 413b
000002c0: 0a08 563d a29c 1e3d 68be 25bd bcbe debc
000002d0: 5db3 b0bc 1fa7 d0b9 8fd3 723d 40ce be3d
000002e0: 7431 42bd c20b 113d 89e7 39be 160d 2c3d
000002f0: 38d4 393c ecee 1e3d 4791 df3c 4304 9e3d
00000300: 4508 b33d b5ff 9f3d d027 3e3d 8810 7d3d
00000310: 5827 143c 3e97 a8bc a1b6 003e d8b4 69bd
00000320: 30d1 613d 049b 95bb 6412 1dbd f0dc 243d
00000330: 23f4 a3bb c1ed 2bbc ae2a 9a3d 0881 ea3c
00000340: a0e1 2e3d 45b7 263d d65a 433d f9c1 1f3e
00000350: e5cd 57bd ac60 453d d99b 123d 16fe 88bc
00000360: 0597 bf3d 2df0 50bc 5148 93bc 0e25 533e
00000370: f2b4 9ebc 3746 473d fed1 87bc f0d7 0e3d
00000380: 5fab 273d 7c06 d7bb 02e8 7a3d b7c2 f03a
00000390: 396a 273e ab0f 65bb 330f f1bc 4976 45bd
000003a0: 83f3 f4bc 90ca cd3c a006 b6bb 705b cdbc
000003b0: 002a 79bc db21 4f3d ff52 f53c 3a85 f23c
000003c0: c23f 0abd 8e56 f33c 1f2e 5a3d 4781 eb3c
000003d0: 146e fa3c 9810 743d 2eac 623d b49e 733d
000003e0: 9c3d 773d 1a11 3a3d 840e cb3c eb1c 703d
000003f0: 8c0b 65bb 33f7 203d 75e6 063d fe41 423d

fc2.bias f4 [300]
-0.024216494 -0.0334159 -0.005736038 -0.0051287645 -0.035126276 0.0072362856 -0.060467917 0.02131684
-0.00084364327 -0.011859971 -0.041686088 0.012616019 0.0041174754 -0.016318612 -0.0050214566 -0.027094126
0.029723087 -0.044888258 0.020917464 0.04819395 -0.04209466 -0.011251251 -0.05273629 0.020732334
-0.0028305035 0.017001104 -0.056989733 -0.033398107 0.049768463 -0.02547236 0.03525761 0.017541425
-0.02919387 -0.040681444 -0.023148699 -0.008193099 -0.037743837 -0.038794566 -0.014423188 0.05000417
0.022314144 0.011948894 0.022465007 -0.0279167 0.032854896 -0.0022736227 -0.043581296 0.034369823
0.06627936 -0.038352694 0.01197681 0.025814118 -0.012417022 0.02982318 -0.05504598 -0.047201514
-0.03846653 -0.03829552 0.021069143 0.005854029 -0.0074792025 0.035243127 0.034143534 -0.029876703
0.012837546 -0.008490209 0.073597 0.041721366 0.041699037 -0.04420043 0.016845271 -0.043928836
-0.015796203 0.012774936 0.005145335 -0.044812113 -0.03463277 -0.016000122 -0.029130034 0.015329674
0.0238582 -0.0077296183 -0.045580786 -0.052387737 0.013266966 -0.008712641 0.032463226 -0.022153549
-0.014936838 0.035784435 0.03240876 0.01163253 0.0056191194 -0.034882758 0.03732154 0.03897133
0.027126279 -0.036123775 0.054686606 0.009825142 -0.013389238 -0.0046760608 0.023971872 -0.05415583
-0.020100031 -0.04523783 0.049880676 0.025886208 0.044999648 0.042842135 0.06321765 0.08898601
0.041471526 -0.004280042 -0.038365275 -0.015877586 -0.0134962015 -0.0244952 -0.031263467 -0.028783798
0.030618254 -0.043259572 0.021966472 0.024373662 -0.026667297 0.042338487 0.022067465 -0.035228953
0.057616338 0.0057501225 0.038217932 0.09799042 -0.033512436 0.012519921 -0.027647717 0.04223383
0.037725843 0.029394675 0.024438554 -0.010859631 -0.039157476 -0.034929402 -0.02520513 -0.035499617
-0.010753339 -0.05641416 -0.032699972 0.0056231995 -0.0019006985 0.011088381 0.07787042 -0.021511907
0.01331888 -0.044024665 0.009357054 -0.0014204292 0.04587516 0.056086343 -0.053937294 -0.0109627815
-0.0017158426 -0.039249957 0.02351671 -0.00015692785 -0.024579803 0.043240223 0.0034319777 0.0039402572
0.046720177 0.050018195 -0.008656038 -0.031981867 0.011260996 -0.0131465895 -0.056686226 -0.028184433
0.04369596 -0.0044705328 0.031756338 0.004126724 -0.13644648 0.060921684 0.056621242 0.060443826
-0.08186398 0.047492348 -0.030712493 -0.046506073 0.0027714404 0.017887918 0.04453472 -0.046205297
0.009018117 0.033023793 0.0059538856 0.005811183 0.022160016 -0.009157743 -0.04125234 0.017041612
-0.0047037373 0.044301193 0.0072631123 -0.04434138 0.05742362 -0.049480036 -0.027157996 0.007225916
0.042500727 -0.04973836 0.016915798 -0.033872664 -0.058897637 -0.016956802 0.001089748 0.0483343
-0.013520775 -0.028154552 0.04841874 0.040988706 -0.04144587 -0.0040680324 -0.048885155 -0.0038434726
0.0036321122 0.035559036 0.041641925 0.02347764 0.01600457 -0.012972026 -0.01761282 -0.032178517
-0.024673345 0.050111484 0.049055528 0.014322819 0.024432205 0.040532436 -0.023666969 -0.015593091
0.022904173 0.017329518 -0.06060991 0.00032134436 -0.00893533 -0.02431347 -0.005613243 0.050568093
0.06022215 -0.0034733787 0.020139864 0.04076204 0.056448076 0.01900786 0.058678314 -0.0046557076
00000000: ab61 c6bc 1cdf 08bd 60f5 bbbb 320f a8bb
00000010: 92e0 0fbd 5d1e ed3b 35ad 77bd a7a0 ae3c
00000020: f127 5dba 5350 42bc 08bf 2abd 6bb3 4e3c
00000030: e3eb 863b 9cae 85bc 088b a4bb 80f4 ddbc
00000040: d57d f33c c0dc 37bd 1a5b ab3c 0567 453d
00000050: 736b 2cbd 2b57 38bc 0202 58bd dbd6 a93c
00000060: f87f 39bb e645 8b3c 116e 69bd 74cc 08bd
00000070: 04da 4b3d 69ab d0bc 496a 103d 09b3 8f3c
00000080: fc27 efbc 96a1 26bd 57a2 bdbc 593c 06bc
00000090: 4899 1abd 0de7 1ebd 3c4f 6cbc 2cd1 4c3d
000000a0: 27cc b63c 4bc5 433c 8908 b83c 90b1 e4bc
000000b0: db92 063d 0f01 15bb 4d82 32bd 5fc7 0c3d
000000c0: 79bd 873d b717 1dbd 623a 443c 2178 d33c
000000d0: c470 4bbc be4f f43c e577 61bd 6056 41bd
000000e0: 158f 1dbd c3db 1cbd 3299 ac3c 28d3 bf3b
000000f0: 1914 f5bb 195b 103d 17da 0b3d fdbf f4bc
00000100: 9254 523c 841a 0bbc 06ba 963d 06e4 2a3d
00000110: 9ccc 2a3d 830b 35bd 18ff 893c b9ee 33bd
00000120: 0a67 81bc f74d 513c 339a a83b e88c 37bd
00000130: 17db 0dbd b012 83bc 1ca2 eebc 5029 7b3c
00000140: 4672 c33c bd48 fdbb ebb2 3abd 8694 56bd
00000150: b05d 593c 77bf 0ebc 29f8 043d 5c7b b5bc
00000160: a4b9 74bc b392 123d 0cbf 043d 5e96 3e3c
00000170: 9720 b83b 39e1 0ebd 79de 183d 67a0 1f3d
00000180: ee37 de3c 86f6 13bd 10ff 5f3d a2f9 203c
00000190: 895e 5bbc a439 99bb a960 c43c 81d2 5dbd
000001a0: d2a8 a4bc 4e4b 39bd ae4f 4c3d 500f d43c
000001b0: 8d51 383d 3c7b 2f3d 4178 813d 4c3e b63d
000001c0: 0cde 293d 983f 8cbb e824 1dbd b611 82bc
000001d0: 2c1f 5dbc 28aa c8bc 1f0e 00bd 00cc ebbc
000001e0: 22d3 fa3c f330 31bd 08f3 b33c 46ab c73c
000001f0: 6075 dabc 1f6b 2d3d d4c6 b43c 3c4c 10bd
00000200: 1cff 6b3d 866b bc3b 688a 1c3d 34af c83d
00000210: 5644 09bd 5b20 4d3c 777d e2bc 61fd 2c3d
00000220: 6a86 1a3d 1acd f03c 5d33 c83c 98ec 31bc
00000230: 9763 20bd 2212 0fbd fd7a cebc 0c68 11bd
00000240: c62e 30bc 8912 67bd 68f0 05bd d142 b83b
00000250: dc20 f9ba 0aac 353c 877a 9f3d bd39 b0bc
00000260: 6f37 5a3c 3553 34bd 544e 193c b22d baba
00000270: 97e7 3b3d cbba 653d 5aed 5cbd 3d9d 33bc
00000280: 20e6 e0ba 90c4 20bd 1ea6 c03c 008d 24b9
00000290: 955b c9bc a91c 313d 08eb 603b 461d 813b
000002a0: a85d 3f3d e1df 4c3d 0ed2 0dbc 6bff 02bd
000002b0: 0a80 383c cb64 57bc d12f 68bd 0ae3 e6bc
000002c0: 89fa 323d 8c7d 92bb ef12 023d 7839 873b
000002d0: a0b8 0bbe 0489 793d adeb 673d f293 773d
000002e0: 4da8 a7bd 5687 423d c498 fbbc 277d 3ebd
000002f0: 0ea1 353b af89 923c 0a6a 363d c441 3dbd
00000300: b9c0 133c f543 073d d018 c33b bc6b be3b
00000310: ec88 b53c 5c0a 16bc 37f8 28bd da9a 8b3c
00000320: cf21 9abb 2b75 353d 67ff ed3b 4f9f 35bd
00000330: 0835 6b3d 94ab 4abd 727a debc 60c7 ec3b
00000340: 3e15 2e3d 73ba 4bbd 0093 8a3c 10be 0abd
00000350: a63e 71bd fee8 8abc e0d5 8e3a 30fa 453d
00000360: 3e86 5dbc 60a4 e6bc bb52 463d c6e3 273d
00000370: 25c3 29bd 214d 85bb cd3b 48bd c5e2 7bbb
00000380: bb08 6e3b 5aa6 113d b990 2a3d 2e54 c03c
00000390: 041c 833c 9f88 54bc c348 90bc 9fcd 03bd
000003a0: c11f cabc b341 4d3d 73ee 483d 42aa 6a3c
000003b0: 0c26 c83c 5705 263d 3be1 c1bc 2a7a 7fbc
000003c0: 88a1 bb3c a2f6 8d3c 1942 78bd 1c7a a839
000003d0: 7e65 12bc 0b2d c7bc 4cef b7bb 7d20 4f3d
000003e0: 80ab 763d a0a1 63bb 5bfc a43c 19f6 263d
000003f0: 1936 673d 5fb6 9b3c ac58 703d e88e 98bb

fc3.weight f4 [1, 300]
-0.028932488 -0.0021009236 -0.028856589 -0.0025502844 -0.004258012 -0.025327062 -0.032430887 -0.026638523
-0.0052917986 -0.029516147 -0.0066413567 -0.03049163 -0.02749776 -0.006637014 0.00057482417 -0.0058984165
-0.027560947 0.0027163387 -0.02807416 0.002049198 -0.026974007 -0.11478703 -0.013258535 -0.030001359
-0.027343916 -0.023157824 -0.0071906582 -0.002744733 -0.029593002 -0.027724952 -0.027350474 -0.028701905
-0.0067534912 -0.0013276216 -0.028910724 -0.027258886 -0.005622061 0.00368816 0.00036116666 -0.022801243
-0.026148936 -0.022102434 -0.0054342155 -0.029024942 -0.0013686708 -0.0061551346 -0.008879196 -0.0068996754
0.12334935 -0.027074954 -0.02643755 -0.028249467 -0.031556495 -0.0020739 -0.009029794 -0.0013877825
-0.0009667515 -0.0021865321 -1.1953292e-05 0.0003076594 -0.029616283 0.0006220711 -0.030060375 -0.029718963
-0.023232175 0.0011318265 0.12411092 -0.0053064656 -0.02852056 -0.11856945 -0.0042743273 0.008503157
0.008697987 -0.024857886 -0.0075751846 -0.0048522367 -0.0035140964 -0.030164361 -0.0018654882 -0.028903756
-0.0028076177 -0.009620031 -0.009824726 0.007528338 -0.024362793 -0.028145598 -0.030902117 -0.029624749
-0.01964168 -0.0065119117 0.058180198 -0.00534641 -0.028415427 0.006743209 -0.026640404 -0.030962113
-0.029125495 -0.031180931 -0.02922788 -0.028002394 -0.028349355 -0.029289464 -0.003830178 -0.0044968566
-0.10995755 0.0027450896 -0.031297754 -0.025202975 -0.001911566 -0.028306704 -0.029415889 0.12746297
-0.02395904 -0.00037056138 0.0013270965 -0.02967463 -0.027593583 -0.029927753 -0.026536738 -0.026166705
-0.024569096 0.009240549 0.0061717615 -0.003939227 -0.002007363 -0.028792616 -0.029315595 -8.691102e-05
-0.026045186 -0.0027525227 -0.0056087635 0.1410957 -0.0027157092 -0.0041367826 0.013357704 -0.028171383
-0.029460652 -0.005938734 -0.003776156 0.0014666277 -0.0028633336 -0.0024010835 -0.004310762 -0.028008707
-0.005920527 -0.008183884 -0.0014231468 -0.018430436 -0.029424815 -0.025491947 0.12135434 -0.024463335
-0.0070922347 -0.004218306 0.001719784 0.0014562748 -0.026638724 -0.029665465 -0.10403334 -0.008598382
0.00054332754 -0.0039916616 -0.0028422826 0.00027351384 -0.0054034786 -0.027091349 -0.02988931 -0.004224879
-0.028671281 -0.02843595 -0.0045162803 0.009532966 -0.005936287 -0.030336212 -0.008177166 -0.030288436
-0.026107296 -0.01032875 -0.03080629 0.0016841562 -0.14694276 -0.030035967 -0.030331992 -0.029866124
-0.17537883 -0.030493148 0.0023368262 -0.025512768 -0.028912097 -0.005652792 -0.026470548 -0.006243467
-0.0080183 -0.028609952 0.00090960413 -0.03012767 -0.023767473 0.0020463602 -0.002566034 -0.0016044846
-0.029901965 -0.001733668 -0.02825089 -0.022735031 -0.029447531 7.0312526e-06 0.0055365614 4.647975e-05
-0.029688662 0.00013683597 -0.0031965445 -0.010064956 -0.17344978 -0.029071163 0.0025444478 -0.030602276
-0.02967074 0.01063531 -0.026600422 -0.004341544 -0.007088337 -0.008609645 -0.005920642 -0.0295428
-0.029241161 -0.027765574 -0.024848267 -0.026136467 -0.02473758 -0.004348887 -0.026727002 -0.029614838
-0.02917676 -0.027875528 -0.029182913 -0.023830898 -0.0293906 -0.027507769 -0.007227546 -0.0049090334
-0.0052615725 -0.028503872 -0.13150655 -0.0039857985 -0.027893173 -0.0010615372 -0.032307986 -0.02644577
-0.029189356 0.0006186315 -0.030255865 -0.030577097 -0.02648768 -0.0052954713 -0.028162628 0.0026883837
00000000: d303 edbc a6af 09bb a764 ecbc ac22 27bb
00000010: cb86 8bbb b37a cfbc 40d6 04bd 0839 dabc
00000020: d366 adbb d9cb f1bc bd9f d9bb 95c9 f9bc
00000030: fb42 e1bc 4f7b d9bb ccaf 163a 8147 c1bb
00000040: 7fc7 e1bc 9a04 323b c8fb e5bc d64b 063b
00000050: 98f8 dcbc 7615 ebbd 543a 59bc 69c5 f5bc
00000060: 5900 e0bc 7ab5 bdbc 9d9f ebbb fae0 33bb
00000070: 066d f2bc 701f e3bc 1a0e e0bc 4220 ebbc
00000080: 644c ddbb 9703 aeba 2fd6 ecbc 074e dfbc
00000090: 4439 b8bb 0fb5 713b f85a bd39 acc9 babc
000000a0: 4b36 d6bc 2a10 b5bc 8111 b2bb b7c5 edbc
000000b0: f964 b3ba 03b1 c9bb 0c7a 11bc ac16 e2bb
000000c0: 969e fc3d 4bcc ddbc 9093 d8bc 6d6b e7bc
000000d0: 6241 01bd 45ea 07bb b3f1 13bc 41e6 b5ba
000000e0: 986d 7dba ec4b 0fbb 008b 48b7 584d a139
000000f0: d99d f2bc 7c12 233a 2d41 f6bc 2f75 f3bc
00000100: 6751 bebc cc59 943a de2d fe3d dce1 adbb
00000110: f3a3 e9bc 8ad4 f2bd a80f 8cbb d350 0b3c
00000120: 0082 0e3c c4a2 cbbc 4139 f8bb 83ff 9ebb
00000130: c14c 66bb 401b f7bc 6683 f4ba 92c7 ecbc
00000140: 0200 38bb 569d 1dbc e3f7 20bc 47b0 f63b
00000150: 7b94 c7bc 9991 e6bc 7026 fdbc 9aaf f2bc
00000160: 97e7 a0bc e061 d5bb 5c4e 6e3d f030 afbb
00000170: 78c7 e8bc 23f6 dc3b fa3c dabc 42a4 fdbc
00000180: 9798 eebc 276f ffbc 4f6f efbc 4765 e5bc
00000190: e83c e8bc 75f0 efbc b903 7bbb 5e5a 93bb
000001a0: 6d31 e1bd f6e6 333b 1332 00bd 7876 cebc
000001b0: 838d faba 76e3 e7bc 97f9 f0bc a785 023e
000001c0: c045 c4bc e847 c2b9 f8f1 ad3a 3618 f3bc
000001d0: f00b e2bc 0c2b f5bc 9363 d9bc 8f5b d6bc
000001e0: 2145 c9bc ac65 173c 7d3c ca3b a214 81bb
000001f0: f68d 03bb 7ede ebbc 4227 f0bc 0044 b6b8
00000200: b75c d5bc ab63 34bb b8c9 b7bb 647b 103e
00000210: 0afa 31bb d98d 87bb 45da 5a3c acc7 e6bc
00000220: 7757 f1bc b699 c2bb 6379 77bb dc3b c03a
00000230: c4a6 3bbb 7f5b 1dbb 4b41 8dbb 8472 e5bc
00000240: fb00 c2bb b315 06bc e288 baba 6dfb 96bc
00000250: 4f0c f1bc 7dd4 d0bc a088 f83d 5567 c8bc
00000260: fa65 e8bb b739 8abb 606a e13a 79e0 be3a
00000270: 7439 dabc fd04 f3bc 6f0f d5bd 3ae0 0cbc
00000280: 186e 0e3a 7ccc 82bb 9745 3abb 6866 8f39
00000290: aa0f b1bb adee ddbc 6dda f4bc db70 8abb
000002a0: 09e0 eabc 82f2 e8bc 4efd 93bb 2830 1c3c
000002b0: 2f85 c2bb a683 f8bc 85f9 05bc 741f f8bc
000002c0: f8de d5bc eb39 29bc 795d fcbc e8be dc3a
000002d0: 2a78 16be fd0d f6bc cc7a f8bc cda9 f4bc
000002e0: 8296 33be c4cc f9bc 7025 193b 2700 d1bc
000002f0: 10d9 ecbc 0e3b b9bb c3d8 d8bc ff95 ccbb
00000300: 305f 03bc 6b5f eabc 8072 6e3a 4ece f6bc
00000310: 01b4 c2bc 3a1c 063b e82a 28bb 924d d2ba
00000320: f7f4 f4bc 3f3c e3ba 696e e7bc d13e babc
00000330: f33b f1bc 00ee eb36 0b6c b53b 40f3 4238
00000340: a335 f3bc a07b 0f39 1e7d 51bb 7ce7 24bc
00000350: d29c 31be a626 eebc c0c0 263b a0b1 fabc
00000360: 0d10 f3bc b93f 2e3c 21e9 d9bc 8343 8ebb
00000370: 4845 e8bb 780f 0dbc f201 c2bb be03 f2bc
00000380: 298b efbc a174 e3bc 988e cbbc 251c d6bc
00000390: 77a6 cabc 1c81 8ebb 96f2 dabc d19a f2bc
000003a0: 1a04 efbc 385b e4bc 0111 efbc 0439 c3bc
000003b0: 8ec4 f0bc f957 e1bc 0dd5 ecbb f5db a0bb
000003c0: 4569 acbb f480 e9bc a7a9 06be 4d9b 82bb
000003d0: 3980 e4bc 4723 8bba 6155 04bd cda4 d8bc
000003e0: 841e efbc a82b 223a 26db f7bc d27c fabc
000003f0: b1fc d8bc a285 adbb 50b5 e6bc 982f 303b
